models/encoderRnn.pth (torch, 661863 bytes, 5 tensors)

weight f4 [1039, 100]
-0.30354762 -0.6389938 -0.79985434 -0.36985195 -0.06827787 0.20363243 0.17215987 0.5473475
1.0558077 1.2038057 0.16256297 -0.4860968 1.3600864 -0.38936332 0.7624524 -0.32430014
-1.0604265 -0.74876106 0.28084636 0.23096927 0.3632293 0.8315395 -0.55389714 -0.55377305
-0.29590213 -0.9880054 1.583201 0.0886419 0.42230582 -0.94363195 -0.2325286 -0.6106958
0.7035032 -1.1603093 0.4343119 0.023414204 0.48467746 -1.0413923 -0.8799933 -0.71539015
-0.8799616 0.29641208 1.66951 0.5809076 0.12407122 -0.5608273 -0.5474284 0.48729804
0.20380902 0.28884423 -0.68673867 0.2536613 -1.3463566 1.2272991 0.867974 0.4091509
-0.049526095 0.19306652 0.8980662 0.6361658 -0.41389254 0.17677875 -0.81941736 0.18726191
0.23501036 -0.9062649 0.22985245 -0.20124425 -1.6888057 0.1673167 -0.21831891 0.45948017
1.7592912 0.29607457 -0.3709267 -0.012609361 1.8708028 0.3807214 -2.1324372 0.35963947
0.72243166 0.31659627 -1.0956004 0.11125207 0.38251594 3.506648 0.032925624 0.5054474
0.48111466 0.61219674 1.4162911 -0.3614218 0.4928772 0.111733064 0.054495066 0.14751849
-0.12624393 1.0889674 -0.40069094 -0.08560286 -1.4233785 -0.30972552 1.3548499 -0.34883064
0.9021729 -1.3389317 -1.1077209 0.9757575 0.24299262 -1.6319563 -1.9549296 -0.16995098
2.734156 1.5896311 1.3037739 -0.42804694 1.2254717 0.15742777 0.31436148 0.022425998
-0.070946395 1.3452468 -0.55935645 -2.6526694 -2.2663074 0.12330025 1.5436696 -0.11633669
0.731274 0.0040018694 0.8066986 0.90487313 -0.032061122 -0.3598548 0.89856964 0.87941664
-0.8976134 0.259586 -0.34778684 -0.52220327 0.65367585 0.41488707 1.2455896 0.6105909
0.51227385 -1.0008698 -1.4165819 -0.4380082 0.22685474 -0.7287535 -1.7713351 3.0835223
0.75185066 0.5953336 0.65103376 -0.6045053 -0.3444094 -0.77726084 0.28312874 0.5706899
0.13218372 -0.51304513 -0.09563887 1.5075773 0.83575183 -0.79596525 -0.86209714 -0.6047895
-0.35033172 -0.22943167 1.8920349 -0.7282258 0.34923795 0.42387652 -0.30277175 0.08981407
2.2413156 -1.83934 -0.32134265 -1.6826397 -0.3333207 0.5795722 0.40757626 0.61077476
-0.27137837 0.8813991 0.005144781 1.628392 0.0752119 0.97844934 0.702724 -2.329307
-1.1477122 0.24833702 2.1249502 0.47863883 -0.22475526 2.225833 -0.8889495 0.4026893
0.95351845 1.5433776 -1.5723565 0.04970561 0.7926693 -0.6631558 -1.2303118 -1.5170226
-0.61442125 1.6468527 -1.3138057 1.3245684 0.1345029 -0.27970478 -0.45263356 0.46007973
0.5430546 -2.5286238 -0.47087088 -0.19268668 2.320187 2.012616 -0.7530683 0.77390003
2.0475397 -1.2764683 -0.29799238 0.49656454 1.3249536 -2.279629 -1.0387355 0.6804806
-1.4323325 0.18907942 -0.38067523 0.83175087 0.2210257 -1.0694295 -0.11800025 -0.18896012
2.2289977 -0.17916358 -0.54518324 0.14994396 -0.78174174 -0.5743996 0.65530473 0.4595299
1.7697175 0.7812623 -1.152864 2.0325046 0.6889552 -0.5688234 -0.7879742 -1.7044058
00000000: 986a 9bbe 1995 23bf 41c3 4cbf 3c5d bdbe
00000010: 45d5 8bbd 0585 503e ad4a 303e f71e 0c3f
00000020: b524 873f 4e16 9a3f e876 263e aee1 f8be
00000030: 5017 ae3f a15a c7be 1530 433f ab0a a6be
00000040: 0ebc 87bf ceae 3fbf 18cb 8f3e 3583 6c3e
00000050: 31f9 b93e c6df 543f 34cc 0dbf 12c4 0dbf
00000060: 7c80 97be eced 7cbf 55a6 ca3f e289 b53d
00000070: 7838 d83e dd91 71bf fa1b 6ebe 8f56 1cbf
00000080: c918 343f 0485 94bf 215e de3e 25cf bf3c
00000090: a527 f83e 584c 85bf 3e47 61bf cf23 37bf
000000a0: 2a45 61bf 53c3 973e 81b2 d53f 5cb6 143f
000000b0: 0d19 fe3d 6192 0fbf 4524 0cbf 217f f93e
000000c0: 50b3 503e 64e3 933e 1bce 2fbf e5df 813e
000000d0: 6a55 acbf 2318 9d3f 8b33 5e3f 3a7c d13e
000000e0: e0db 4abd 3bb3 453e abe7 653f c3db 223f
000000f0: b9e9 d3be 7d05 353e 56c5 51bf 96c1 3f3e
00000100: 8ea6 703e fa00 68bf 715e 6b3e f912 4ebe
00000110: c92a d8bf 1255 2b3e fe8e 5fbe fc40 eb3e
00000120: 7430 e13f 1697 973e 1bea bdbe 7e97 4ebc
00000130: 7776 ef3f eaed c23e da79 08c0 aa22 b83e
00000140: 48f1 383f e818 a23e a23c 8cbf 20d8 e33d
00000150: 21d9 c33e ec6c 6040 05dd 063d 0065 013f
00000160: a954 f63e edb8 1c3f 0749 b53f 470c b9be
00000170: 665a fc3e 4ed4 e43d 3836 5f3d 160f 173e
00000180: 1746 01be 4963 8b3f 5d27 cdbe 8d50 afbd
00000190: 4431 b6bf 5894 9ebe b96b ad3f ee99 b2be
000001a0: cef4 663f 1d62 abbf ccc9 8dbf 3ecb 793f
000001b0: 0fd3 783e f2e3 d0bf 223b fabf a107 2ebe
000001c0: 69fc 2e40 0879 cb3f 10e2 a63f f828 dbbe
000001d0: 42dc 9c3f bf34 213e fdf3 a03e bab6 b73c
000001e0: 584c 91bd 0c31 ac3f fc31 0fbf 56c5 29c0
000001f0: 2e0b 11c0 d784 fc3d f796 c53f ee41 eebd
00000200: c634 3b3f 1d22 833b cd83 4e3f c4a5 673f
00000210: 8652 03bd e33e b8be a908 663f 7321 613f
00000220: fec9 65bf 75e8 843e 1e11 b2be 1daf 05bf
00000230: 4d57 273f 146c d43e 7b6f 9f3f af4f 1c3f
00000240: 6124 033f 801c 80bf 8e52 b5bf 9c42 e0be
00000250: 9c4c 683e 978f 3abf 1cbb e2bf 6e58 4540
00000260: 4979 403f c867 183f 26aa 263f dcc0 1abf
00000270: 6e56 b0be 91fa 46bf 40f6 903e bc18 123f
00000280: 2b5b 073e ed56 03bf 50de c3bd 4bf8 c03f
00000290: d5f3 553f 61c4 4bbf 66b2 5cbf 7cd3 1abf
000002a0: ae5e b3be 23f0 6abe 332e f23f 026d 3abf
000002b0: 51cf b23e 5806 d93e e604 9bbe 70f0 b73d
000002c0: b771 0f40 7e6f ebbf 0687 a4be bd60 d7bf
000002d0: 03a9 aabe d85e 143f d6ad d03e bc5b 1c3f
000002e0: 1bf2 8abe 5fa3 613f 8d95 a83b 266f d03f
000002f0: b208 9a3d a87b 7a3f b8e5 333f 5e13 15c0
00000300: 3ce8 92bf 0f4c 7e3e 2fff 0740 2610 f53e
00000310: 3e26 66be 0c74 0e40 3292 63bf 4b2d ce3e
00000320: c919 743f 668d c53f fa42 c9bf 1c98 4b3d
00000330: 60ec 4a3f 94c4 29bf db7a 9dbf cc2d c2bf
00000340: b64a 1dbf 12cc d23f c92a a8bf 758b a93f
00000350: 21bb 093e 7735 8fbe 96bf e7be 928f eb3e
00000360: a005 0b3f f9d4 21c0 fd15 f1be a84f 45be
00000370: f27d 1440 b3ce 0040 16c9 40bf 501e 463f
00000380: e40a 0340 5063 a3bf 7592 98be b53d fe3e
00000390: 1498 a93f 71e5 11c0 49f5 84bf fa33 2e3f
000003a0: ac56 b7bf 099e 413e dde7 c2be a0ed 543f
000003b0: 9054 623e 11e3 88bf 1daa f1bd c37e 41be
000003c0: e6a7 0e40 a876 37be 2191 0bbf e98a 193e
000003d0: 3a20 48bf da0b 13bf 0dc2 273f 8147 eb3e
000003e0: 1a86 e23f ce00 483f 0c91 93bf 8e14 0240
000003f0: 5e5f 303f 699e 11bf adb8 49bf f829 dabf

weight_ih_l0 f4 [300, 100]
0.1252401 0.06822972 -0.16454087 -0.25593615 0.21173619 0.0006910291 -0.20192201 -0.035801724
-0.14698659 0.07082986 -0.044626057 0.24918787 -0.20376098 0.21477439 -0.2605646 -0.22849543
0.1522195 0.06744173 -0.1873232 -0.15565611 -0.065284565 -0.06763639 -0.24143307 -0.056415923
-0.46742082 -0.3630961 -0.20315805 0.1484052 0.019098429 -0.5161957 -0.2774414 -0.0034964124
0.25483912 -0.3303251 0.043372843 -0.09482136 0.12747775 -0.06638883 0.059537835 -0.09175683
0.03389526 -0.06794787 -0.05217971 -0.42893076 -0.3723485 -0.047409933 -0.041444723 -0.082401924
0.28500444 0.00062722794 -0.19310164 -0.072151735 -0.12688608 0.025409812 -0.15378028 0.029640418
0.005252396 -0.3328159 0.18482885 -0.24376833 -0.29841855 -0.18776946 0.12467274 -0.2885123
-0.091094926 0.21814318 -0.066126615 -0.15451156 -0.021682236 -0.12270848 0.08086579 -0.086293235
0.012738082 0.49190554 -0.024465773 0.027186615 -0.01565818 0.21572846 0.117200635 0.09885657
-0.15843678 0.0552104 0.1524013 0.111212716 -0.107151955 -0.13830072 0.11820624 0.73685634
0.038358606 -0.36486578 0.2800052 -0.26551235 -0.20682062 -0.06398391 -0.20231542 0.248722
-0.07694812 -0.33029222 0.07412364 0.00014568427 -0.4711937 -0.41175672 -0.052265245 -0.12551075
0.063155286 0.14067747 -0.43238235 -0.42812148 0.14838888 -0.010642859 -0.029737694 -0.0374562
-0.064351656 0.14853399 0.2698565 -0.34797576 0.022974785 -0.3288249 0.054214828 -0.17900106
-0.38453364 -0.025530782 0.010877433 0.3967463 0.05953829 -0.0044910903 -0.4173525 -0.19091402
0.08753475 -0.13974139 -0.3025703 0.28429508 0.08310862 0.11677631 -0.052349146 0.2931652
-0.021689624 0.03998078 0.11313476 0.06742501 -0.16665003 0.47840345 -0.14808092 -0.11207979
0.041183684 0.36269936 -0.0009221395 0.39173976 -0.12679137 0.14839007 0.2539985 -0.042318564
-0.026324678 0.10671231 -0.3293253 0.41067573 0.052798152 0.15240249 -0.00091021677 0.24003026
0.42240146 0.29455617 0.016254606 0.13084944 0.12224197 -0.105668165 -0.05419486 -0.05168396
0.012714406 0.038870744 0.28411222 -0.18426734 -0.19563118 0.117096774 -0.36086547 -0.20527904
0.065951124 0.083337195 -0.015958793 -0.04505212 0.7407111 -0.18065566 0.122318365 -0.014671331
0.24615666 0.108039424 -0.002907766 0.31230855 -0.38002214 0.4819123 -0.13788857 -0.33826724
-0.40097082 -0.07629059 -0.026125757 0.22763114 -0.24623202 -0.024257956 -0.18537652 0.100518376
0.27332368 -0.19977866 -0.20515119 -0.15705732 0.3459753 -0.34156135 -0.0353695 0.019504594
-0.4117857 0.03455271 -0.46185952 0.39304414 -0.14992858 -0.05004302 0.1115745 -0.07885446
-0.0022620356 0.14664939 0.08180858 -0.08124516 -0.17245427 -0.13363561 -0.15893495 0.3164146
0.055955138 -0.44372588 -0.0027527858 0.09047695 -0.50816023 0.34670812 -0.096188664 -0.11607331
-0.23809424 0.022113504 -0.33646917 0.041498065 0.37619263 0.12664573 0.2604477 -0.057075303
-0.2960803 0.027391162 -0.3457758 -0.039682265 -0.32897097 0.0691074 0.1875604 -0.23699266
0.10657624 -0.032684237 0.034984913 0.1203596 0.042852424 0.021275714 0.2248334 -0.1655437
00000000: f13e 003e 06bc 8b3d 677d 28be 100a 83be
00000010: 5fd1 583e 2e26 353a a5c4 4ebe d4a4 12bd
00000020: a783 16be 3f0f 913d d0c9 36bd 1b2b 7f3e
00000030: b8a6 50be d1ed 5b3e b968 85be b5fa 69be
00000040: 6edf 1b3e e41e 8a3d a7d1 3fbe 5164 1fbe
00000050: eab3 85bd f384 8abd 3b3a 77be 6214 67bd
00000060: c851 efbe bbe7 b9be aa08 50be 88f7 173e
00000070: 4f74 9c3c 6725 04bf cd0c 8ebe 1124 65bb
00000080: 467a 823e 5f20 a9be b9a7 313d b431 c2bd
00000090: 8789 023e def6 87bd f2dd 733d 01eb bbbd
000000a0: c2d5 0a3d 4128 8bbd 64ba 55bd d09c dbbe
000000b0: 76a4 bebe eb30 42bd f1c1 29bd 57c2 a8bd
000000c0: 1aec 913e 8e6c 243a 70bc 45be 4ac4 93bd
000000d0: 6dee 01be 3d28 d03c 9478 1dbe 76d0 f23c
000000e0: 4b1c ac3b d866 aabe c643 3d3e 689e 79be
000000f0: 51ca 98be a346 40be 6c54 ff3d e2b7 93be
00000100: fa8f babd ed60 5f3e 646d 87bd 4738 1ebe
00000110: f29e b1bc 954e fbbd f79c a53d 82ba b0bd
00000120: 63b3 503c 0bdb fb3e 726c c8bc 77b6 de3c
00000130: 9545 80bc ece7 5c3e e306 f03d 5075 ca3d
00000140: 403d 22be 4d24 623d 160f 1c3e 7ec3 e33d
00000150: 7c72 dbbd b49e 0dbe 1d16 f23d 9ea2 3c3f
00000160: ea1d 1d3d b0cf babe d75c 8f3e 3cf1 87be
00000170: c9c8 53be ff09 83bd c62b 4fbe fbb0 7e3e
00000180: fa96 9dbd 101c a9be 23ce 973d d3c2 1839
00000190: 4d40 f1be c7d1 d2be 1514 56bd e485 00be
000001a0: 8f57 813d c10d 103e 3861 ddbe bd32 dbbe
000001b0: 41f3 173e 635f 2ebc 779c f3bc ac6b 19bd
000001c0: cdca 83bd 4b19 183e a22a 8a3e e129 b2be
000001d0: 9e35 bc3c bd5b a8be 5e10 5e3d 0e4c 37be
000001e0: 98e1 c4be ee25 d1bc 4337 323c 5522 cb3e
000001f0: 6cde 733d ff29 93bb 3aaf d5be f77e 43be
00000200: 6b45 b33d 5e18 0fbe 7fea 9abe 208f 913e
00000210: da34 aa3d 6b28 ef3d 0f6c 56bd c019 963e
00000220: 70ae b1bc e3c2 233d 32b3 e73d 2016 8a3d
00000230: 4ea6 2abe 4cf1 f43e 86a2 17be 178a e5bd
00000240: 39b0 283d bbb3 b93e bcbb 71ba 1d92 c83e
00000250: 99d5 01be 91f3 173e 170c 823e 3b56 2dbd
00000260: daa6 d7bc fc8b da3d 539d a8be 1744 d23e
00000270: e042 583d 660f 1c3e 9d9b 6eba 7eca 753e
00000280: 0145 d83e 11d0 963e 6128 853c 65fd 053e
00000290: ff59 fa3d 8d68 d8bd 6efb 5dbd 8fb2 53bd
000002a0: 1550 503c ee36 1f3d 2877 913e 94b0 3cbe
000002b0: 8a53 48be 6fd0 ef3d 5cc3 b8be ab34 52be
000002c0: 6211 873d b1ac aa3d 04bc 82bc 9288 38bd
000002d0: 3e9f 3d3f ccfd 38be 0d82 fa3d 0660 70bc
000002e0: 7e10 7c3e c643 dd3d 3890 3ebb e8e6 9f3e
000002f0: 4392 c2be 36bd f63e a932 0dbe 5d31 adbe
00000300: 0c4c cdbe 3e3e 9cbd af05 d6bc 2318 693e
00000310: 3f24 7cbe 9fb8 c6bc 58d3 3dbe 94dc cd3d
00000320: 15f1 8b3e c792 4cbe 2713 52be a2d3 20be
00000330: ad23 b13e 21e1 aebe 9cdf 10bd 19c8 9f3c
00000340: 93d5 d2be 2487 0d3d da78 ecbe 153d c93e
00000350: e186 19be e9f9 4cbd 2c81 e43d 727e a1bd
00000360: a93e 14bb 422b 163e 428b a73d dd63 a6bd
00000370: da97 30be c6d7 08be d8bf 22be 1801 a23e
00000380: 3731 653d 0a30 e3be 1568 34bb fb4b b93d
00000390: ca16 02bf ba83 b13e 90fe c4bd d8b7 edbd
000003a0: face 73be 6127 b53c b045 acbe e0f9 293d
000003b0: 529c c03e 6baf 013e 6759 853e cbc7 69bd
000003c0: d697 97be 6e63 e03c 8709 b1be df89 22bd
000003d0: e26e a8be 2e88 8d3d d50f 403e 34ae 72be
000003e0: a544 da3d e8df 05bd 574c 0f3d 187f f63d
000003f0: 0686 2f3d 684a ae3c ba3a 663e 4a84 29be

weight_hh_l0 f4 [300, 100]
0.011914363 0.29711133 0.09325965 0.12825118 0.15751801 0.031167736 -0.0729764 -0.00570603
0.16131249 -0.13310984 0.01326669 0.19424444 0.18567936 0.07910576 -0.096264794 0.06332469
0.17089109 0.30380395 0.27630758 -0.24074037 0.12727477 -0.39316627 0.09696121 0.027638668
0.19981572 -0.17843112 -0.016294032 -0.034768157 0.032500494 0.12039764 0.19765872 0.22083001
-0.029498026 -0.30468217 -0.13732849 0.409482 -0.0062478543 -0.10524662 -0.21318659 -0.12738729
-0.31541136 0.022451935 0.012593609 -0.31019506 0.050922923 0.07445828 0.0049643107 0.042098552
-0.18229575 -0.16709587 -0.083632104 -0.07546532 0.07808668 0.0045570754 -0.013533927 0.1510159
-0.093921535 0.22001903 0.27295864 0.2552823 0.17728272 0.04596986 -0.028510435 -0.0036666547
-0.091053694 0.14005785 -0.14192158 0.23829111 0.09291097 -0.010657158 0.0658828 -0.012384364
-0.035428785 0.09623748 0.16323659 -0.2151937 -0.24578448 -0.021258248 -0.08265124 0.09297401
-0.39552993 0.13794841 0.032796282 -0.19697623 0.19449234 0.1979493 0.16320014 0.09024644
-0.18159042 0.107720554 0.12271775 0.011113125 0.24920921 -0.2132685 0.04645589 0.18390079
0.1507356 -0.13941345 0.00092281314 0.15363798 0.036935814 0.080249146 -0.106843054 0.15072401
-0.119451426 0.12617539 -0.16380413 0.06566341 -0.011422487 0.0068391394 0.41363296 0.22746871
0.1461846 -0.4730741 -0.05991184 -0.22051477 0.053884886 -0.04566164 -0.05549399 -0.6791528
0.38491315 -0.2210332 -0.0135039985 -0.16211519 0.21135372 -0.18831405 0.02573974 -0.05053177
-0.2745483 0.13998388 0.16799578 0.06251122 0.091447584 -0.32103688 0.012810686 0.13178058
-0.07547175 0.11053719 -0.008940436 0.13299838 -0.09023059 -0.23859982 -0.07800587 -0.18534605
-0.023289423 0.16266522 -0.081741326 -0.012819633 0.250116 0.045368724 -0.31892073 -0.11756641
-0.12556358 -0.14647397 0.112568736 0.20799802 0.04862828 -0.0221633 -0.0959594 0.15823768
-0.2559481 0.078811966 -0.17968671 -0.0137552675 -0.13549162 0.1402915 0.4200503 -0.16311727
0.012807933 0.030616632 0.11879134 -0.09612524 0.14643818 0.0073450613 0.2849724 0.024976546
-0.15918341 0.1293895 0.16752116 -0.21343823 -0.048400905 0.14957453 -0.08615599 0.22893058
0.13187465 0.085889935 0.21509607 0.0266258 -0.07299069 -0.05436585 0.027764812 -0.12146313
-0.113005005 0.234884 0.114194855 0.09885559 0.15214413 -0.0993044 0.13290931 0.06602368
0.20373358 -0.30040875 0.1419979 0.31112286 -0.058685053 -0.34410292 -0.09849797 0.042819202
0.05836992 0.031289563 0.1360373 0.09439091 -0.17105588 0.097342536 -0.35886276 -0.17900267
0.073142104 0.076351024 -0.33055395 -0.06631679 -0.23867048 -0.145543 -0.093191706 0.35507172
-0.16359147 0.22414558 0.039832197 0.067534275 0.19351196 0.22842376 -0.16476348 -0.008156544
0.13161469 -0.076914854 0.01818879 -0.0023912783 0.35467803 0.12261751 -0.066312954 -0.09635058
-0.09130412 0.077340946 0.35581666 0.2157346 0.053195044 0.34843114 -0.07458129 -0.058360256
-0.065792136 -0.075227745 0.035100136 -0.07502975 -0.37471643 0.002227202 0.2830565 -0.103265844
00000000: 7634 433c fa1e 983e eafe be3d 4754 033e
00000010: 674c 213e 7b53 ff3c a774 95bd a6f9 babb
00000020: 1a2f 253e f24d 08be 885c 593c 04e8 463e
00000030: bb22 3e3e 3302 a23d 7a26 c5bd 60b0 813d
00000040: 13fe 2e3e 318c 9b3e 3078 8d3e a584 76be
00000050: 5154 023e 174d c9be 9993 c63d 7d6a e23c
00000060: 7e9c 4c3e a6b6 36be 107b 85bc 0e69 0ebd
00000070: 3d1f 053d 0a93 f63d 0c67 4a3e 4321 623e
00000080: d8a5 f1bc 4dff 9bbe d79f 0cbe a0a7 d13e
00000090: cdba ccbb 8a8b d7bd 964d 5abe d071 02be
000000a0: 997d a1be 1fed b73c 6d55 4e3c e3d1 9ebe
000000b0: 8e94 503d 957d 983d a8ab a23b 886f 2c3d
000000c0: bdab 3abe 2e1b 2bbe 4f47 abbd 908d 9abd
000000d0: e9eb 9f3d 8553 953b 67bd 5dbc e9a3 1a3e
000000e0: ef59 c0bd ab4c 613e 3cc1 8b3e 5db4 823e
000000f0: 9a89 353e e44a 3c3d b78e e9bc 424c 70bb
00000100: 5c7a babd 536b 0f3e e453 11be 9602 743e
00000110: 1b48 be3d 5c9b 2ebc 90ed 863d cae7 4abc
00000120: c61d 11bd 2818 c53d 7e27 273e bd5b 5cbe
00000130: edae 7bbe c725 aebc 0e45 a9bd 2869 be3d
00000140: e682 cabe 5942 0d3e 6555 063d 23b4 49be
00000150: 0029 473e 39b3 4a3e f01d 273e 20d3 b83d
00000160: d7f2 39be 989c dc3d 7253 fb3d d313 363c
00000170: b330 7f3e 0f63 5abe 8848 3e3d 7d50 3c3e
00000180: 6f5a 1a3e 66c2 0ebe f1e8 713a 4653 1d3e
00000190: 024a 173d aa59 a43d 88d0 dabd 6557 1a3e
000001a0: f3a2 f4bd 1f34 013e 45bc 27be 8a7a 863d
000001b0: 6225 3bbc dc1a e03b b3c7 d33e 8fed 683e
000001c0: 6ab1 153e c536 f2be 1e66 75bd a0ce 61be
000001d0: 66b6 5c3d b307 3bbd ab4d 63bd f5dc 2dbf
000001e0: 5613 c53e 8756 62be e03f 5dbc 8601 26be
000001f0: 1c6d 583e 66d5 40be 26dc d23c 67fa 4ebd
00000200: 9891 8cbe ef57 0f3e 1607 2c3e e205 803d
00000210: df48 bb3d f25e a4be e9e3 513c 7df1 063e
00000220: ef90 9abd 5361 e23d e87a 12bc ba30 083e
00000230: d1ca b8bd 8353 74be 8bc1 9fbd 5bcb 3dbe
00000240: 76c9 bebc b691 263e ff67 a7bd 7009 52bc
00000250: 340f 803e 8ed4 393d 9449 a3be a8c6 f0bd
00000260: bd93 00be 46fd 15be 708a e63d 6ffd 543e
00000270: 732e 473d cf8f b5bc 5d86 c4bd 0f09 223e
00000280: a10b 83be 2b68 a13d cbff 37be c65d 61bc
00000290: 51be 0abe 93a8 0f3e d510 d73e 3708 27be
000002a0: 5dd8 513c bbcf fa3c e048 f33d 4fdd c4bd
000002b0: e4f3 153e d7ae f03b e7e7 913e 9d9b cc3c
000002c0: fa00 23be ae7e 043e ab8a 2b3e 8d8f 5abe
000002d0: 0740 46bd 112a 193e 8d72 b0bd c76c 6a3e
000002e0: 260a 073e 10e7 af3d 2542 5c3e 5a1e da3c
000002f0: 257c 95bd baae 5ebd 0873 e33c a9c1 f8bd
00000300: 2b6f e7bd 6e85 703e fede e93d cd74 ca3d
00000310: accb 1b3e 1b60 cbbd 6119 083e 6c37 873d
00000320: 899f 503e 2dcf 99be e667 113e 7f4b 9f3e
00000330: bd5f 70bd 422e b0be 4eb9 c9bd 3063 2f3d
00000340: 4c15 6f3d 7c29 003d 5d4d 0b3e 0550 c13d
00000350: 4629 2fbe 865b c73d dcbc b7be 7a4c 37be
00000360: 87cb 953d ed5d 9c3d 5e3e a9be 19d1 87bd
00000370: 0966 74be 3909 15be 4bdb bebd f6cb b53e
00000380: 8684 27be 6b86 653e 1627 233d 694f 8a3d
00000390: 0028 463e ebe7 693e c2b7 28be 06a3 05bc
000003a0: 00c6 063e 8985 9dbd a800 953c feb6 1cbb
000003b0: 5c98 b53e e41e fb3d 16cf 87bd 7453 c5bd
000003c0: a8fd babd ee64 9e3d 9a2d b63e 88e9 5c3e
000003d0: 0ce3 593d 9165 b23e 13be 98bd 2a0b 6fbd
000003e0: 07be 86bd 0111 9abd 29c5 0f3d 33a9 99bd
000003f0: d5da bfbe 40f6 113b c8ec 903e 0b7d d3bd

bias_ih_l0 f4 [300]
0.13100706 0.110538915 -0.019038307 0.20742312 -0.1341342 -0.08779177 -0.21080369 0.054613486
0.2573608 0.050371017 0.284678 -0.13645573 0.03077897 0.35940808 0.063975625 0.024363354
-0.101699464 -0.059087947 -0.044254463 0.08246464 0.5157684 -0.055351853 0.5221896 0.1665279
0.08592602 0.27274308 -0.18931769 0.002735065 0.18229157 -0.14353876 -0.07198161 0.08196748
-0.000994808 0.4132509 0.18484893 0.17942461 0.090155676 -0.12381198 0.27103734 0.06166664
-0.05030894 -0.067552 0.07756688 -0.17104365 0.14853899 0.38000923 0.30256692 0.18876451
0.017544731 0.22288014 -0.009728695 0.30688927 -0.057406798 0.25398526 0.019476924 0.17770942
0.014332236 0.081099555 0.17987026 0.03999903 -0.07211549 0.40814403 0.40078327 -0.08079432
0.26446274 0.024613936 -0.14456889 0.11465001 0.20007758 0.29973626 0.03560585 -0.14913459
0.14939713 -0.21736962 -0.06671365 0.05753107 0.12025217 0.112174794 0.24481931 0.45618382
0.5338816 0.04487897 0.07047329 0.18643792 0.111465015 -0.04458692 -0.08490571 0.09879467
-0.024608452 -0.03353752 0.12424585 0.058489718 -0.096581794 -0.014883087 0.024017354 0.10424438
0.41564316 0.3379227 0.08310405 0.30923918 -0.058893174 -0.20834254 -0.22649217 -0.22704564
-0.19482891 -0.17471607 -0.051097568 -0.2696735 -0.20730834 -0.30826294 -0.266978 -0.175136
-0.20739216 -0.2228337 -0.2134072 -0.1358873 -0.29325363 -0.077150285 0.062075045 -0.24883975
-0.24885695 -0.19579458 -0.28620312 -0.2840392 -0.1474618 -0.1706405 0.05145524 -0.11215981
-0.14635463 -0.23169537 -0.16638787 -0.13664263 -0.22035699 -0.23255819 -0.19460674 0.06599542
0.05838069 -0.2860899 -0.22021937 0.07382178 -0.03619272 -0.2284393 -0.47076502 -0.1290018
-0.27599496 -0.16375291 -0.2890379 -0.20589207 -0.24806362 -0.24188805 0.14557816 -0.44242433
-0.22276336 -0.20966649 -0.11761649 -0.03060467 -0.21395414 -0.49211425 0.12427356 -0.098294504
-0.07651963 -0.23909095 -0.54535425 -0.06864009 0.039108712 -0.20296556 -0.07235156 0.14335994
0.2608546 -0.07128184 -0.35813147 -0.16549902 -0.462066 -0.0045674695 -0.10163201 0.048078787
-0.11623257 0.24117701 -0.3458605 -0.27734047 -0.52649707 0.39261672 -0.07711413 -0.28738198
-0.030243367 -0.046718147 -0.30980757 0.09151158 -0.30947754 -0.011730482 0.017692035 -0.13324182
-0.4163225 -0.3760661 -0.10245137 -0.0063137314 -0.45161054 -0.25277096 -0.29835948 0.19117741
-0.24905385 -0.17711958 -0.0033324552 0.02351578 -0.09209234 0.37724474 -0.13321409 0.05750885
-0.04849932 0.07803657 0.061047506 -0.34354362 0.07588057 -0.28859562 0.03038388 0.108108394
-0.0332343 0.08435563 0.3845219 0.06726732 -0.18236724 0.168706 -0.19860445 0.24844112
0.12069103 0.1001028 0.03819037 -0.04778985 -0.30415836 0.13329847 0.111510485 0.18325265
0.2687908 0.16405918 0.10163812 0.062343046 -0.11736361 -0.051000804 -0.057985276 0.2590111
0.062040918 -0.1083308 0.3894515 0.03933298 0.19432098 0.16394271 0.029654004 -0.018296756
-0.06529076 0.076830216 -0.089291684 -0.15488267 0.1649264 -0.25919303 0.022175128 0.33186534
00000000: b726 063e 3a62 e23d 39f6 9bbc ba66 543e
00000010: 7a5a 09be 2ccc b3bd ecdc 57be 64b2 5f3d
00000020: cbc4 833e d751 4e3d 51c1 913e 0dbb 0bbe
00000030: 2e24 fc3c 5604 b83e a705 833d a895 c73c
00000040: cf47 d0bd 3406 72bd 2b44 35bd 39e3 a83d
00000050: 6609 043f a0b8 62bd 38ae 053f 4a86 2a3e
00000060: fbf9 af3d fba4 8b3e 7fdc 41be c73e 333b
00000070: a4aa 3a3e d3fb 12be 186b 93bd 91de a73d
00000080: 3864 82ba 9f95 d33e 0a49 3d3e 16bb 373e
00000090: 8aa3 b83d 2391 fdbd 68c5 8a3e 2996 7c3d
000000a0: bf10 4ebd b458 8abd 62db 9e3d 1126 2fbe
000000b0: 9b1a 183e 9290 c23e 0dea 9a3e 7c4b 413e
000000c0: f8b9 8f3c b13a 643e 1b65 1fbc 9720 9d3e
000000d0: 6423 6bbd 5b0a 823e 128e 9f3c 75f9 353e
000000e0: c1d1 6a3c 8617 a63d e92f 383e 06d6 233d
000000f0: 49b1 93bd 41f8 d03e 7733 cd3e 7e77 a5bd
00000100: a967 873e 2aa3 c93c de09 14be a0cd ea3d
00000110: 23e1 4c3e 0877 993e 71d7 113d bdb6 18be
00000120: 90fb 183e 2496 5ebe 2ba1 88bd b3a5 6b3d
00000130: c546 f63d e6bb e53d eab1 7a3e ed90 e93e
00000140: 77ac 083f 03d3 373d 4d54 903d 95e9 3e3e
00000150: c547 e43d c6a0 36bd 0be3 adbd dc54 ca3d
00000160: aa97 c9bc a35e 09bd 9c74 fe3d ea92 6f3d
00000170: adcc c5bd 31d8 73bc 0bc0 c43c 147e d53d
00000180: 2ecf d43e 3404 ad3e 7532 aa3d 9954 9e3e
00000190: f839 71bd bf57 55be 90ed 67be a77e 68be
000001a0: 3b81 47be c5e8 32be af4b 51bd a512 8abe
000001b0: a348 54be a4d4 9dbe 57b1 88be da56 33be
000001c0: 9c5e 54be 842e 64be 6b87 5abe 0a26 0bbe
000001d0: 5725 96be f800 9ebd 6742 7e3d d9cf 7ebe
000001e0: 5bd4 7ebe 607e 48be 3789 92be 966d 91be
000001f0: 3a00 17be 62bc 2ebe bbc2 523d 0bb4 e5bd
00000200: fddd 15be 8d41 6dbe 9561 2abe 0cec 0bbe
00000210: 43a5 61be bc23 6ebe fd46 47be 9b28 873d
00000220: 9720 6f3d 607a 92be 3081 61be e02f 973d
00000230: d13e 14bd feeb 69be 1d08 f1be 0c19 04be
00000240: 364f 8dbe d8ae 27be c7fc 93be 5fd5 52be
00000250: 6404 7ebe 80b1 77be 7112 153e 7185 e2be
00000260: 141c 64be d0b2 56be eae0 f0bd a5b6 fabc
00000270: cb16 5bbe 66f6 fbbe 2383 fe3d a14e c9bd
00000280: 53b6 9cbd 42d4 74be 569c 0bbf 2d93 8cbd
00000290: 7530 203d 34d6 4fbe 0e2d 94bd f3cc 123e
000002a0: bc8e 853e 37fc 91bd 025d b7be 9378 29be
000002b0: ea93 ecbe b6aa 95bb 7124 d0bd 43ee 443d
000002c0: 570b eebd 1bf7 763e a114 b1be 92ff 8dbe
000002d0: 83c8 06bf 0f05 c93e 03ee 9dbd bb23 93be
000002e0: f0c0 f7bc 875b 3fbd 199f 9ebe 6c6a bb3d
000002f0: d773 9ebe 3531 40bc e3ee 903c 8b70 08be
00000300: 3928 d5be bc8b c0be 06d2 d1bd 6be3 cebb
00000310: 7f39 e7be 326b 81be 93c2 98be 03c4 433e
00000320: f907 7fbe d65e 35be 5265 5abb 2aa4 c03c
00000330: e99a bcbd 3926 c13e 4669 08be 668e 6b3d
00000340: 39a7 46bd a3d1 9f3d f30c 7a3d f3e4 afbe
00000350: 4667 9b3d cec2 93be 9de7 f83c ef67 dd3d
00000360: b020 08bd a5c2 ac3d 0ee0 c43e 73c3 893d
00000370: 7abe 3abe 44c1 2c3e f75e 4bbe 5967 7e3e
00000380: dc2c f73d b202 cd3d 816d 1c3d 4abf 43bd
00000390: a5ba 9bbe 657f 083e 9c5f e43d 95a6 3b3e
000003a0: f39e 893e 21ff 273e a627 d03d 6c5b 7f3d
000003b0: 555c f0bd 38e6 50bd f881 6dbd 1a9d 843e
000003c0: 9e1e 7e3d 8adc ddbd 3066 c73e 9e1b 213d
000003d0: 14fc 463e 99e0 273e f4ec f23c 14e3 95bc
000003e0: 29b7 85bd 2959 9d3d 8fde b6bd 9099 1ebe
000003f0: 77e2 283e f3b4 84be 9da8 b53c 41ea a93e

bias_hh_l0 f4 [300]
0.14342238 0.04861104 0.024482954 0.20078263 -0.21412408 -0.00343636 -0.14820859 -0.004615442
0.36746684 -0.008249684 0.24546616 -0.26779655 -0.056381773 0.4519241 -0.0022013749 0.031973027
-0.06151127 -0.023549862 -0.02391847 0.26027963 0.4972722 0.026835734 0.49774665 0.15754664
0.02723206 0.10689376 -0.19017987 0.0017807041 0.05889918 -0.17015211 0.02352913 0.1539566
0.017750317 0.3522134 0.14466986 0.14989647 0.17444147 -0.08480298 0.38864204 -0.04219804
-0.042215668 0.121070504 0.21034369 -0.23676859 0.066830434 0.43252897 0.27944514 0.2338326
-0.120245695 0.12086227 0.06884659 0.25641763 0.067185044 0.37684873 -0.03905637 0.09825931
-0.10860075 0.070132315 0.12556835 0.00047787852 -0.081538685 0.40292716 0.43653965 -0.09622558
0.2122873 -0.023414992 -0.0442175 0.04091751 0.10572949 0.30794403 -0.08939226 -0.06784612
0.13689342 -0.21441537 -0.03496672 0.10798237 0.062433098 0.1789934 0.26927376 0.34562314
0.4646485 0.07350055 0.042000443 0.09288689 0.10921216 0.012186704 0.006177563 0.09334121
-0.027441368 0.032473646 0.08327457 -0.08563981 -0.14251219 -0.11396337 -0.0033690282 0.12217197
0.2732491 0.32034534 0.07468561 0.23815696 -0.005249624 -0.21091995 -0.26152223 -0.38084614
-0.30489448 -0.21911512 0.010848947 -0.20745228 -0.20084836 -0.17246377 -0.3023741 -0.20708579
-0.2704925 -0.2590153 -0.10394288 -0.18536083 -0.22756939 -0.06229387 0.0023525201 -0.18247062
-0.18709423 -0.19779254 -0.2811292 -0.3357507 -0.042104293 -0.22293098 0.059768014 -0.047319543
-0.12328362 -0.2763821 -0.003574939 -0.049042135 -0.16903459 -0.28959876 -0.23922978 0.004721525
0.009121232 -0.22683224 -0.2131725 0.0738742 -0.08266657 -0.3961943 -0.33768067 -0.15502465
-0.4079833 -0.19903798 -0.23870338 -0.208598 -0.11905751 -0.2880618 0.26705292 -0.26647672
-0.14007097 -0.30374646 -0.27860308 -0.07140105 -0.2657859 -0.4931683 0.085464805 -0.25655782
-0.17659375 -0.33549255 -0.45708627 -0.12421216 0.041481435 -0.10295127 0.06758525 0.11605952
0.3215364 0.10972978 -0.37865806 -0.27527097 -0.3685329 -0.13275595 -0.10219811 -0.12311496
0.04128163 0.19831093 -0.26420787 -0.14042176 -0.43737754 0.31354898 -0.118491605 -0.30048046
-0.1396888 -0.15495336 -0.35795882 0.09039114 -0.38606644 0.019589964 -0.010378196 -0.15927829
-0.39211103 -0.34301695 -0.12139986 0.019786514 -0.44705936 -0.12223439 -0.4169422 0.18419363
-0.21975219 -0.17395498 0.02547478 -0.2378669 0.014620481 0.04939232 -0.32021943 0.067655854
-0.02738484 0.13220333 -0.044508 -0.033426598 -0.16355886 -0.054067336 0.16350034 0.32179412
0.15943488 -0.033685062 0.23502848 0.18400417 -0.14913033 0.059765287 -0.2192155 0.17003188
0.14553621 0.30374977 -0.012452498 -0.10458241 -0.3360726 0.13692449 0.010930437 -0.050444923
0.3725714 0.09198176 0.07314649 0.05819333 -0.18592468 0.061269753 -0.29095203 0.10682221
0.14075647 0.015608813 0.59516346 -0.1865498 -0.15237682 0.13513756 -0.15515277 0.0778322
-0.2578855 0.07815344 -0.17060235 -0.023232136 0.13733941 -0.1179656 0.12804511 0.10269443
00000000: 51dd 123e 5f1c 473d 7a90 c83c f699 4d3e
00000010: 5843 5bbe 8e34 61bb fec3 17be 223d 97bb
00000020: 9d24 bc3e af29 07bc 7b5b 7b3e a11c 89be
00000030: 93f0 66bd 9862 e73e f144 10bb 26f6 023d
00000040: 3ef3 7bbd a4eb c0bc abf0 c3bc 5f43 853e
00000050: 769a fe3e 9dd6 db3c a6d8 fe3e e853 213e
00000060: c515 df3c 1eeb da3d 83be 42be 8466 e93a
00000070: 4440 713d 5b3c 2ebe 29c0 c03c cda6 1d3e
00000080: 1d69 913c 5155 b43e 5624 143e 767e 193e
00000090: c9a0 323e 2fad adbd 17fc c63e dad7 2cbd
000000a0: 56ea 2cbd d0f3 f73d 5664 573e 7773 72be
000000b0: 65de 883d 7074 dd3e 6f13 8f3e d071 6f3e
000000c0: 6043 f6bd a386 f73d 71ff 8c3d 2c49 833e
000000d0: 5098 893d 51f2 c03e 92f9 1fbd 2d3c c93d
000000e0: 126a debd 88a1 8f3d fd94 003e c58b fa39
000000f0: c1fd a6bd 784c ce3e 2082 df3e eb11 c5bd
00000100: d861 593e ccd0 bfbc 691d 35bd 1e99 273d
00000110: b488 d83d d7aa 9d3e 4a13 b7bd e8f2 8abd
00000120: ca2d 0c3e b48f 5bbe 4339 0fbd dc25 dd3d
00000130: d9b9 7f3d 0c4a 373e 40de 893e 84f5 b03e
00000140: 68e6 ed3e 7587 963d a808 2c3d 7b3b be3d
00000150: a0aa df3d beaa 473c 286d ca3b ad29 bf3d
00000160: b8cc e0bc 1603 053d dc8b aa3d ed63 afbd
00000170: b7ee 11be a165 e9bd eaca 5cbb 4c35 fa3d
00000180: 4ee7 8b3e 4e04 a43e c5f4 983d 6bdf 733e
00000190: 0a05 acbb 66fb 57be 3ee6 85be 44fe c2be
000001a0: 211b 9cbe b75f 60be c8bf 313c 5f6e 54be
000001b0: 31ab 4dbe 589a 30be c7d0 9abe 4c0e 54be
000001c0: fe7d 8abe a79d 84be 01e0 d4bd 3bcf 3dbe
000001d0: f307 69be db27 7fbd bd2c 1a3b 94d9 3abe
000001e0: a195 3fbe 218a 4abe 2bf0 8fbe 84e7 abbe
000001f0: 8d75 2cbd 0548 64be 4ecf 743d 23d2 41bd
00000200: 1f7c fcbd f481 8dbe 8649 6abb 68e0 48bd
00000210: 6717 2dbe 4a46 94be a7f8 74be 06b7 9a3b
00000220: 3871 153c b646 68be e449 5abe 5b4b 973d
00000230: 174d a9bd fbd9 cabe 7be4 acbe c8be 1ebe
00000240: 30e3 d0be 9dd0 4bbe a96e 74be b79a 55be
00000250: 6cd4 f3bd d67c 93be 29bb 883e a36f 88be
00000260: c46e 0fbe a884 9bbe 10a5 8ebe b73a 92bd
00000270: 1715 88be 8e80 fcbe 2c08 af3d 8c5b 83be
00000280: fed4 34be aec5 abbe 3607 eabe f262 febd
00000290: 70e8 293d 1ed8 d2bd 236a 8a3d 9db0 ed3d
000002a0: 6ba0 a43e 02ba e03d 78df c1be 51f0 8cbe
000002b0: 58b0 bcbe 2df1 07be 3e4d d1bd b223 fcbd
000002c0: ed16 293d 0512 4b3e 4146 87be b9ca 0fbe
000002d0: f3ef dfbe 7e89 a03e baab f2bd 93d8 99be
000002e0: 950a 0fbe 18ac 1ebe 6146 b7be fd1e b93d
000002f0: 80aa c5be 227b a03c 4f09 2abc d919 23be
00000300: c7c2 c8be eb9f afbe 7da0 f8bd 5417 a23c
00000310: f7e4 e4be 0656 fabd 7379 d5be 419d 3c3e
00000320: b806 61be 4121 32be 7cb0 d03c 6193 73be
00000330: be8a 6f3c 9a4f 4a3d cdf3 a3be 278f 8a3d
00000340: 2c56 e0bc 4f60 073e 054e 36bd 54ea 08bd
00000350: f97b 27be b675 5dbd a26c 273e 33c2 a43e
00000360: e642 233e 59f9 09bd 4eab 703e 976b 3c3e
00000370: 9fb5 18be 72cc 743d 077a 60be d61c 2e3e
00000380: 7207 153e 1785 9b3e 9005 4cbc 4d2f d6bd
00000390: b511 acbe ef35 0c3e 9315 333c 569f 4ebd
000003a0: aec1 be3e ef60 bc3d d4cd 953d 215c 6e3d
000003b0: 0a63 3ebe fef5 7a3d aaf7 94be 9ac5 da3d
000003c0: 7722 103e 1bbc 7f3c a25c 183f e906 3fbe
000003d0: ab08 1cbe 8061 0a3e 5ee0 1ebe 7d66 9f3d
000003e0: 9109 84be e90e a03d 62b2 2ebe 5251 bebc
000003f0: b4a2 0c3e f397 f1bd 421e 033e 7551 d23d
